Models/wAIves2v1.0.pth (torch, 39452 bytes, 5 tensors)

fc1.weight f4 [128, 6]
000000 72 af 90 3d 08 72 5b be 4b ca 98 3e 52 48 07 bd
       0.070647135 -0.21430218 0.29841837 -0.033027954
000010 86 c5 b9 bd e9 6b c5 3d 80 73 c0 3b 4a 15 bc be
       -0.09070878 0.09639723 0.0058731437 -0.36734992
000020 52 99 c4 3e a3 ea 4f be 4a 32 69 be ca e1 a7 3e
       0.38398224 -0.2030435 -0.2277309 0.3278945
000030 34 74 24 bf 97 93 84 bd c8 de e8 3d 5d d3 81 bc
       -0.6423981 -0.06473463 0.11370617 -0.015847856
000040 0d 71 c0 3c 2e 64 f3 bd 40 4d 8a bc fc 94 45 be
       0.023491407 -0.11884342 -0.016882539 -0.19295114
000050 10 df 9c be fa 26 b6 be 70 6e 14 3d 12 ab 8c 3e
       -0.30638933 -0.35576612 0.036238134 0.27474266
000060 6b f7 5a bf 13 cd 41 3c 2f e0 48 3e 44 75 38 3e
       -0.8553378 0.011828679 0.19616769 0.18013483
000070 b1 1b 07 c0 8a 88 bf 3d 0d 68 94 3b 88 b8 6a 3e
       -2.1110651 0.09352215 0.0045290054 0.22921956
000080 2b 4b 0f bd 49 63 31 bb e0 b5 ea 3f be 81 95 bc
       -0.034983795 -0.0027067235 1.8336754 -0.018250342
000090 1d 2a af 3b 9c 33 ef be 38 77 7f be 7b ce a2 3d
       0.0053455965 -0.46719062 -0.24947822 0.07949539
0000a0 76 16 77 3f c3 22 04 bf 8b d7 46 bf e9 36 0b 3e
       0.9651865 -0.5161554 -0.7767264 0.13595165
0000b0 fd 0b 7e bd e0 59 fb 3d 1c 47 19 c0 2b 78 6f 3e
       -0.06202315 0.12273002 -2.3949652 0.23385684
0000c0 07 4c bc be d4 25 00 be 8a 88 ab be 21 9b b1 be
       -0.36776754 -0.1251443 -0.3350261 -0.34688666
0000d0 a4 dd ad 3e 04 30 51 3e 80 59 b9 3d 25 9f 8c be
       0.3395816 0.20428473 0.09050274 -0.27465168
0000e0 92 09 bf 3e 6c 4e 52 be c4 24 a2 be 40 61 d3 3d
       0.3731199 -0.20537728 -0.31668675 0.10321283
0000f0 f1 68 50 3d d1 13 80 be d7 44 81 3b 9d f7 d3 3c
       0.05088133 -0.2501512 0.003944974 0.025874907
000100 95 d2 07 c0 05 cf 48 3c 71 60 21 3e 5d 72 a1 3e
       -2.122228 0.012256389 0.15759446 0.31532565
000110 f7 75 17 bf 6d 0a c8 bc 24 b8 c8 bd 8c b5 c2 be
       -0.59164375 -0.024419034 -0.09800747 -0.38029134
000120 94 fb 3e 3e a7 98 bf be 7b a8 f8 be cd 4d d0 3d
       0.18650657 -0.37421152 -0.4856604 0.10171089
000130 de 4a d0 3f bb 19 b5 be be e0 fd 3d 9e 1e a9 3e
       1.6272848 -0.35371193 0.12396382 0.33031172
000140 9f 0e 16 3f 0e 68 6b 3c 00 9a 39 3e cb 30 73 bf
       0.5861606 0.01436807 0.18125153 -0.9499633
000150 2a 6b 11 bf 79 b8 01 3f 21 65 4b be 85 3d 2e 3d
       -0.56804144 0.5067211 -0.19862796 0.04253914
000160 c5 ff 14 3e 75 fd 65 bf 5a 85 06 be 9e 15 47 be
       0.14550693 -0.8983987 -0.13136807 -0.1944184
000170 d0 2f 7e 3e 20 ad f8 bd 0c b5 a3 be 6a ee b2 3e
       0.24822927 -0.12142396 -0.31974065 0.3494752
000180 13 0e 04 bf 77 75 ff 3d 3d 9c 62 3e ad 6d 09 3e
       -0.51583976 0.124735765 0.22129913 0.13420744
000190 52 f2 cb bf 59 0c f4 3d 37 f2 22 bf 06 1a d8 3d
       -1.5933325 0.11916418 -0.6365084 0.105518386
0001a0 29 a2 1f be 1e d4 00 3e ce 5e 0c c0 47 65 de bc
       -0.15589203 0.12580916 -2.1932864 -0.027147902
0001b0 44 c5 b9 3e ec 54 88 be 80 90 85 3b 1e 41 8b be
       0.36283314 -0.2662729 0.0040760636 -0.27198118
0001c0 5a 78 8c 3e 4c cb 4d be 82 ee e6 be 39 77 8f 3e
       0.2743557 -0.20097083 -0.45103842 0.28020647
0001d0 46 ac e6 3e 38 56 9a b9 3b 48 31 c0 6c 53 60 3e
       0.4505331 -0.00029437407 -2.7700336 0.21906823
0001e0 8e 26 84 3e 0f f2 4b be 50 62 15 be 84 1a e0 bd
       0.25810665 -0.19916557 -0.14588284 -0.109425575
0001f0 dc ca 8d 3d 40 d4 f3 3c b8 50 1c be 38 8e c5 3d
       0.06923458 0.029764295 -0.15265167 0.09646267
000200 44 84 aa 3e 70 da c1 bc da 0b b4 be aa 79 0b be
       0.33304036 -0.02366373 -0.35165292 -0.1362063
000210 04 3f 5e be 20 c3 dd 3d 6e 06 c3 3e 2c 74 a3 bd
       -0.21703726 0.10828233 0.38090843 -0.079811424
000220 66 57 38 be 94 df 29 3e a0 ed 93 3e 64 73 01 be
       -0.1800209 0.16589195 0.2889223 -0.12641674
000230 c8 10 69 3d 32 dd 24 be 20 20 29 3c 14 5b a9 be
       0.05690077 -0.16100004 0.010322601 -0.330773
000240 fa f4 5b 3d c7 e0 88 be 31 eb ee bd 2c 21 a8 3d
       0.053700425 -0.26733992 -0.11665953 0.08209452
000250 e9 ae 2e bf 21 6a 1d bf ee 14 48 bd ee 6c c2 be
       -0.6823564 -0.61490065 -0.048848085 -0.37973732
000260 2f 9e 38 be 79 91 30 3e 8d 26 15 c0 21 64 6f be
       -0.18029092 0.17242993 -2.330478 -0.2337804
000270 fe 47 43 bf a3 19 ae 3d cd 0d 20 3e 2d 62 4d 3d
       -0.76281726 0.085009836 0.15630265 0.050142456
000280 09 de 1b c0 9d dd 9b bd a3 d3 14 be 64 dd 4f 3d
       -2.435427 -0.07610629 -0.14533858 0.050748244
000290 49 fd 5e bc e9 ab 7f 3e 80 28 10 40 30 3f c5 bd
       -0.013610193 0.24967922 2.252472 -0.09631193
0002a0 fa 33 01 bf e4 12 80 3e 5a 49 a6 be d7 43 83 3d
       -0.50469935 0.25014412 -0.32477838 0.06409424
0002b0 d4 3b e3 bf c8 db 79 be 70 34 d3 bd b6 14 79 be
       -1.7752633 -0.24400246 -0.10312736 -0.24324307
0002c0 b0 6b fd bd 08 fd e5 bd 6a ce 0b be 98 00 9a 3e
       -0.123740554 -0.112299025 -0.1365296 0.30078578
0002d0 b0 3a 9b 3e 24 5f 89 be 22 2f 47 3e c9 2c c1 3c
       0.30318213 -0.268304 0.19451573 0.023580926
0002e0 ba e7 dd 3f 20 5b 46 3e 14 c7 a2 be 60 18 82 be
       1.7336342 0.19370699 -0.3179251 -0.25409222
0002f0 7d 2f e9 be 37 e7 45 bd 25 06 fb 3e 1f 50 34 3e
       -0.45544043 -0.048316207 0.49028125 0.17608689
000300 ba 1d 0d 3d 8a ee cf be f7 f4 db bd 39 87 d1 bd
       0.034452178 -0.40611678 -0.10740083 -0.1023087
000310 99 cb 10 3d cb 5e ab 3e 4f e3 89 3e 85 1d 83 be
       0.035350416 0.3347076 0.26931235 -0.2560846
000320 03 fb 29 be a6 9f 80 bc 08 00 ad 3f 7e 4e 27 3e
       -0.1659966 -0.015701126 1.3515635 0.16338536
000330 4f 2e 08 be 2d 92 90 3e e4 f9 1f 3e 97 ce 83 bc
       -0.13298915 0.28236523 0.1562267 -0.01608972
000340 94 b9 71 be fd 30 10 be 67 93 a5 be 1e 7f 13 bc
       -0.23605949 -0.14081188 -0.32339022 -0.009002475
000350 58 90 af be fd 55 73 3e 32 e1 e0 bf 44 47 91 be
       -0.34289813 0.2376327 -1.7568724 -0.28374684
000360 40 fe 14 3e aa 42 4c be e8 5c b7 be c0 d7 8b 3b
       0.14550114 -0.19947305 -0.3581307 0.0042676628
000370 f0 e3 fb 3d 9c 16 15 be a0 e3 a5 3c a2 94 93 be
       0.12299335 -0.14559406 0.020250142 -0.28824335
000380 dd 6d b2 be 2c bf 12 be 10 52 ea 3d 98 4e 48 bd
       -0.34849444 -0.14330739 0.114414334 -0.048903078
000390 94 65 8f bd f9 59 21 be 4c 77 f9 be ed 6b 26 bc
       -0.07001796 -0.15756978 -0.4872383 -0.010157567
0003a0 8e 1c 50 3f 95 c2 80 be 53 34 01 be c1 fb 5c 3e
       0.8129357 -0.25148454 -0.12617616 0.21580411
0003b0 14 55 18 3e e5 2e c2 bd fa 63 f1 be fc c3 6b 3e
       0.14876205 -0.09481601 -0.4714659 0.23023981
0003c0 f1 79 a2 be a8 7b 67 3e 35 32 22 3e 1b 42 8e 3d
       -0.3173366 0.22605765 0.15839465 0.06946202
0003d0 1c a0 1b bf 89 44 d1 be b6 30 0d 3e 5b a0 bf bb
       -0.6079118 -0.408726 0.13788113 -0.0058479733
0003e0 e1 3e 5b 3e 2d cf 65 3d f4 b0 aa 3f 32 3d 17 bf
       0.21410705 0.05610578 1.3335252 -0.5907775
0003f0 40 18 b9 3e b4 6c f6 bd 8c 43 aa be 68 63 34 bd
       0.36151314 -0.12032452 -0.3325466 -0.044040114

fc1.bias f4 [128]
000000 75 6d 4b be 00 b5 d3 bd 1c 81 fa be e8 50 d8 3d
       -0.19865973 -0.103372574 -0.48926628 0.10562307
000010 43 3a ed be bf 38 ad 3d cc 18 5a bd db f1 cc be
       -0.46333513 0.08458089 -0.053246304 -0.4002827
000020 20 ec 77 3d fc dc 3e 3e b5 fc 4e 3d dd cc 70 3e
       0.06052792 0.18638986 0.05053397 0.23515649
000030 37 4f 5d be 78 65 02 3e 51 48 56 3e 74 b1 b9 3e
       -0.2161225 0.1273402 0.20926024 0.36268198
000040 7d af 3e be 0a e6 bb be 6e 0e a9 be 6f 85 cd be
       -0.18621631 -0.36698943 -0.3301882 -0.40140864
000050 00 93 97 ba a2 31 aa 3e 24 da 83 be 80 4d 23 3d
       -0.0011564195 0.33240992 -0.25752366 0.03986883
000060 9d 03 00 3e 76 b1 e3 be 91 86 69 be 2e c6 bc be
       0.12501378 -0.4447133 -0.2280524 -0.3686995
000070 3f fa be be 16 e3 9e be 17 70 3d be 02 ea 00 be
       -0.37300298 -0.31032628 -0.1849979 -0.12589267
000080 cd e9 fe 3c 35 7c 73 3e af 76 86 3d 8f 02 28 3e
       0.031117344 0.2377785 0.06565606 0.16407226
000090 ae 51 a6 3e 44 ea ae 3e 73 95 19 3d f0 2c 85 3d
       0.32484192 0.34163105 0.03749604 0.06502712
0000a0 10 ae 80 be 83 d0 85 3e 53 61 cc be 8d 66 08 3e
       -0.251328 0.26135644 -0.39918002 0.1332037
0000b0 80 fa d1 bb f0 85 88 be 01 48 1d bd a0 68 08 bf
       -0.0064080358 -0.26664686 -0.038398746 -0.53284645
0000c0 e3 91 a4 be 40 50 f3 be 47 9a 7f be ed ee 98 be
       -0.32142553 -0.47522163 -0.24961196 -0.29869786
0000d0 e1 05 8e be 9d a7 75 be 58 9b 05 3e a4 47 c3 bd
       -0.2773886 -0.2398972 0.1304754 -0.09535149
0000e0 9a 18 a5 be 58 61 f2 3d 34 cc 9e 3e db bf cf be
       -0.32245332 0.11834973 0.3101517 -0.40576062
0000f0 92 7a b1 3e a3 da ef 3d 28 63 0f bf e9 b6 51 be
       0.34663826 0.117116235 -0.56010675 -0.20479931
000100 48 c4 f5 3d 2e 13 04 3e fc 53 0d bf 0f f1 38 3e
       0.12000328 0.12897941 -0.55206275 0.18060707
000110 84 f6 9a 3d 54 53 70 3e 04 24 c9 be 98 db 8b be
       0.075665504 0.23469287 -0.3928529 -0.27315974
000120 2c 1d f4 bd 2f f7 da be 04 da 06 bf 00 7d b0 3d
       -0.119196266 -0.4276671 -0.52676415 0.08617592
000130 89 fd 80 bd 1a 07 9f 3e 89 9f 05 bf 08 cd f0 bd
       -0.06298358 0.31060106 -0.52196556 -0.117578566
000140 a8 4f 9e 3d 50 8b 9c be a0 38 0f 3d 89 33 a5 be
       0.07730037 -0.30575037 0.03496611 -0.3226588
000150 33 50 b3 be 2c fa 52 3e eb 24 40 be 52 2f 20 bf
       -0.35022125 0.20603245 -0.18764083 -0.62572205
000160 8a e6 ae be 2c 69 fd bd e8 41 74 bd 80 38 2d 3c
       -0.34160262 -0.123735756 -0.059633166 0.010572553
000170 c0 0f 2f 3e 07 1e 44 3e 9a a8 47 3e cd 54 cd be
       0.17095852 0.1915208 0.1949791 -0.4010376
000180 ba 19 05 bf ca 40 29 bd 38 b4 7d bd 40 79 77 3c
       -0.5199238 -0.041321553 -0.061939448 0.015104592
000190 5a 7c 97 3e ba e9 b8 3e 80 08 4d 3e ce 88 c6 be
       0.2958706 0.3611582 0.20022774 -0.3877625
0001a0 1c cd 33 bf 83 16 5d 3e ab ad b3 be 70 00 7d 3d
       -0.7023485 0.21590619 -0.35093436 0.061767995
0001b0 7e 36 bb 3e bc 04 76 be 0a b6 7a 3c c0 ed da bc
       0.36565012 -0.24025244 0.015302191 -0.026724696
0001c0 68 45 ac be d0 7e 61 bd 6b 41 0e bf 7d 77 b0 be
       -0.33646703 -0.05505258 -0.5556857 -0.34466162
0001d0 74 6b b1 3d a0 53 78 3d 23 ee 06 3e 00 42 c0 3d
       0.08663073 0.060626626 0.1317678 0.093875885
0001e0 35 85 3d be fe f3 8f be 03 8c 9f 3e 7a 98 aa 3d
       -0.18507846 -0.2811584 0.31161508 0.08329864
0001f0 76 13 66 3e 14 c7 bb bd e0 9b 62 bd 8b 4b 80 3e
       0.22468361 -0.091688305 -0.055324435 0.25057635

fc2.weight f4 [64, 128]
000000 b6 5d 40 3d 6c c5 8a bc 80 e5 45 bc 58 36 d5 bc
       0.04696437 -0.016939841 -0.012078643 -0.02602689
000010 9c 26 12 bd 7e 4f 2d 3d 50 bd a3 bd 3b 92 99 3d
       -0.035681352 0.042312138 -0.07995093 0.074985944
000020 69 3c aa 3d b2 b6 98 bd f9 67 5e bd 48 f5 2e bc
       0.083123036 -0.07456721 -0.054298375 -0.010678597
000030 55 68 69 bd 68 09 17 bd 2c d0 a5 bc 88 0a d7 3c
       -0.056984264 -0.036874205 -0.020240866 0.026250139
000040 a2 d7 d5 bc 06 c0 62 3d b9 93 9f 3d 23 5b 80 3d
       -0.026103798 0.05535891 0.07791848 0.06267383
000050 c0 fd 97 bd 5a 5d 26 bd 9a 13 f3 bc 0e 4a 2c 3d
       -0.07421446 -0.04061637 -0.029672433 0.04206281
000060 c5 f0 9d bd 04 b9 a9 bc 4e 0e 64 3d 2c 72 a8 bd
       -0.07711939 -0.020718105 0.055677705 -0.082249016
000070 0a f5 7c 3d 7c dd a0 bc d8 53 11 3c 5c 01 a3 bd
       0.061757125 -0.019636862 0.008870088 -0.07959244
000080 02 30 96 bd 3e e7 4b 3d 52 79 19 3d 5c c6 bb bc
       -0.073333755 0.049781077 0.037469216 -0.022921734
000090 04 9b 7e bd 48 95 08 bd 68 68 4e bc 68 24 5c 3c
       -0.062159553 -0.03334549 -0.012598135 0.013436414
0000a0 bb 9e 29 bd d5 f9 2c bd e8 90 8d bd 70 15 e2 bc
       -0.041411143 -0.042230446 -0.06912404 -0.027598113
0000b0 38 ca b1 bd 90 73 34 bd 40 7e b8 bb 08 97 1c bc
       -0.08681148 -0.04405552 -0.0056302845 -0.009557493
0000c0 7d bf 23 bd 77 1d ac 3d 07 34 b3 bd 26 22 16 bd
       -0.03997754 0.084040575 -0.08750158 -0.03665366
0000d0 8f 0b a8 bd a0 92 a9 bd 04 ce 9f 3c da c4 62 3d
       -0.082053296 -0.082799196 0.019507416 0.055363514
0000e0 6d 9b 9a 3d 63 2d 0d bd 32 3e d4 bc 00 8b 63 bc
       0.07549176 -0.034467112 -0.025908563 -0.013888121
0000f0 66 7e 08 3d 76 a7 5f bd b4 3b b2 bc f2 f0 63 3d
       0.033323668 -0.054603063 -0.021756984 0.055649705
000100 4b a4 8a 3d 48 8c 25 3c 56 75 4c bd e0 4c da 3b
       0.06769618 0.010104246 -0.049916588 0.0066619962
000110 00 65 ac 3a 57 d3 6d bd 90 b2 04 3c 5b 46 9f bd
       0.0013152659 -0.058062878 0.008099213 -0.07777091
000120 8b d7 93 bd c7 c2 30 bd 60 98 88 3c 4d ad 88 bd
       -0.07218846 -0.043154504 0.01667422 -0.066736795
000130 34 25 b1 bc e8 a9 92 bd 41 a7 a4 3d 84 88 11 bd
       -0.021624185 -0.07161313 0.08039714 -0.035530582
000140 96 c0 4f 3d 88 ce 6d bd f4 a1 b2 bd 46 6b b0 bd
       0.050720774 -0.05805829 -0.08722296 -0.08614211
000150 a0 48 7f bb d6 ab 57 bd 7c 53 28 bd e0 bb aa bb
       -0.00389532 -0.05265411 -0.041095242 -0.0052103847
000160 ff 0d b0 3d 20 2f 0c 3b b3 2c a3 3d c8 92 b6 bc
       0.085964195 0.0021390393 0.0796751 -0.022286788
000170 f1 e4 b4 bd 98 b4 a4 3c 6e d4 38 3d 36 ba 47 3d
       -0.088327296 0.020105645 0.045124464 0.04876157
000180 b8 ce 5d 3c c3 45 52 bd 84 11 f4 3c 64 7b b6 3c
       0.013538055 -0.05133606 0.029793508 0.022275634
000190 55 96 3a bd 9e 4a 89 bd 30 a2 0d bc 0d 8e 98 3d
       -0.045553524 -0.06703685 -0.008644626 0.07448969
0001a0 97 db a4 bd f0 84 9f 3c b9 a7 62 bd 4f ca 24 bd
       -0.08049696 0.01947257 -0.055335734 -0.040232
0001b0 7f 98 9c 3d 78 3e b9 bc e0 95 9c bb 93 7a 93 bd
       0.07646274 -0.022612795 -0.0047786087 -0.072011136
0001c0 96 78 6c 3d 1b b8 47 bd 35 1e 0f bd 2a 31 95 bd
       0.057732187 -0.04875956 -0.034940917 -0.07284768
0001d0 80 3a e2 3b 32 fa 97 bd 72 90 1a 3d ea d2 96 bd
       0.0069039464 -0.07420768 0.03773541 -0.073644474
0001e0 00 00 76 3b 30 67 8d bc 3d 79 a2 3d a0 ed 0c 3d
       0.003753662 -0.017261118 0.079332806 0.034406304
0001f0 21 8e a4 3d 5f 57 a2 3d 0e 25 69 3d dc 29 4f bd
       0.080349214 0.07926821 0.056920104 -0.05057703
000200 ea 2e 0c 3d 40 2b a7 bb 38 fc 8e bc 15 99 25 bd
       0.03422443 -0.0051015913 -0.017454252 -0.040429194
000210 a0 13 fb 3b 61 c1 79 bd c8 30 35 3c 99 59 88 bd
       0.0076622516 -0.060975436 0.011058994 -0.066577144
000220 a6 3d 86 bd b3 b4 8d bd 14 ff a6 bc a8 17 28 bd
       -0.06554727 -0.06919231 -0.020385303 -0.041038185
000230 80 ee 5c bd 80 56 c0 bb e4 17 6f bd 60 0f 02 bc
       -0.05393839 -0.0058696866 -0.058372393 -0.007938236
000240 fd b9 82 3d 38 95 aa 3c de 4e 29 3d e2 54 7f bd
       0.06383131 0.020823106 0.04133498 -0.06233681
000250 60 2d e1 bc 98 78 ef 3c 87 df a9 3d e8 15 cd 3c
       -0.027487457 0.029232308 0.082945876 0.02503486
000260 8d a3 9c 3d 31 96 b1 bd 5b 55 b4 bd 04 ff 83 3c
       0.07648382 -0.08671225 -0.08805343 0.016112812
000270 d0 fc 00 bc 58 ee a6 3c 76 32 13 bd 30 fe d3 bb
       -0.007872775 0.020377323 -0.035936795 -0.0064695105
000280 ba 7f 1f bd 5c 3a a0 bc dd 52 b4 3d a2 0a 19 3d
       -0.03894017 -0.019559078 0.088048674 0.037363656
000290 0e 47 24 bd 1b 55 2b bd 51 63 89 3d 9e f3 0b 3d
       -0.040106826 -0.04182921 0.06708396 0.03416788
0002a0 eb dc 83 3d a3 9d ac bd 70 f9 92 bc 98 8c d5 3c
       0.06438621 -0.08428504 -0.017941207 0.026068017
0002b0 d0 b6 ad bb 90 b2 8c bd 97 65 86 3d 20 e4 4b bd
       -0.005301334 -0.068699956 0.065623455 -0.049778104
0002c0 d4 87 86 bd 68 85 4d bd 0f df 89 3d 3a 0c 63 3d
       -0.06568876 -0.050176054 0.06731998 0.055431582
0002d0 a0 3d c7 bc 2b 1b a1 3d 42 88 0e 3d 6a b7 2b bd
       -0.024321377 0.0786651 0.034797914 -0.041922964
0002e0 f3 1e b3 3d 6e 8a 25 3d 08 73 49 3c c7 2c 83 bd
       0.087461375 0.04041522 0.012295492 -0.06405025
0002f0 3d f3 9f bd b6 3a 22 3d c0 2d a7 3a 20 f6 bf 3c
       -0.07810066 0.039606772 0.0012754723 0.023432791
000300 02 ae 75 3d 73 83 9b 3d d2 11 7d 3d 1f 65 8d 3d
       0.0599804 0.07593431 0.061784573 0.06904053
000310 42 fd 7f 3d da 2e 35 3d f8 5c d2 bc f2 b3 1a 3d
       0.062497385 0.044234134 -0.025679097 0.037769265
000320 b9 e7 ae 3d e0 01 7f bd 63 f0 b3 3d 70 46 c2 3b
       0.08540291 -0.062257648 0.087860845 0.005928807
000330 40 ba 4b bc e4 19 d3 3c e7 16 8a bd b8 be 03 3d
       -0.012434542 0.025769182 -0.067426495 0.032164305
000340 58 51 78 bc 58 ae 57 3c d9 46 5c bd 80 7e 66 bb
       -0.015156113 0.013164125 -0.053778503 -0.0035170615
000350 90 e7 fb 3c 5e 55 67 3d d8 90 60 bc 40 0c 7b bd
       0.030750066 0.056477897 -0.013706408 -0.06129098
000360 c0 c2 44 bd 38 7d a5 bd 20 bb a3 bc 00 97 a8 ba
       -0.04803729 -0.08080524 -0.01998669 -0.0012862384
000370 52 7f 39 3d e3 30 86 bd bd cc 48 bd ce f5 29 3d
       0.045287438 -0.06552293 -0.04902338 0.041494183
000380 2b 86 97 3d ff 46 90 3d 8c 29 cd 3c bb 17 a2 3d
       0.073986374 0.070447914 0.025044225 0.079146825
000390 87 0f 21 bd b8 4f c0 3c 70 4b 46 bd 70 67 b4 3c
       -0.03932145 0.023475513 -0.048411787 0.02202198
0003a0 e0 25 2a bd 90 18 f1 bc a9 14 8b 3d 65 94 63 bd
       -0.041540027 -0.029430658 0.0679105 -0.055561442
0003b0 8c 8b b0 bc 74 1b 48 bd 0e 7f 55 bd 10 5e de bb
       -0.021550916 -0.048854306 -0.052123122 -0.0067861155
0003c0 fe 89 ae bd 32 f0 51 3d ed 49 a2 bd 60 22 64 bc
       -0.08522414 0.05125446 -0.079242565 -0.013924211
0003d0 20 da 99 3b 7c 0b 80 3c 53 5b a0 3d f8 a8 14 3d
       0.004695192 0.015630476 0.07829919 0.036293954
0003e0 1f c0 a9 bd f6 1e 99 bd fb fd 3e bd b0 90 6f bd
       -0.08288597 -0.074766085 -0.046628933 -0.058487594
0003f0 74 a8 a6 bd 90 5c f8 bc 8e 51 1a 3d 36 59 24 3d
       -0.08137599 -0.030317575 0.037675433 0.04012414

fc2.bias f4 [64]
000000 92 21 2d 3d 00 46 57 bb ac 64 b0 3c e8 af 3a bd
       0.042268343 -0.003284812 0.02153238 -0.045577914
000010 36 d8 5b bb e6 22 08 3c 7c 1b 05 3d c8 ba c2 bd
       -0.003354562 0.008309102 0.032496914 -0.09508282
000020 b8 4a 84 bc 1e 11 62 3d 65 5c b8 3c f2 90 11 3d
       -0.01614891 0.055192105 0.022504995 0.03553862
000030 88 c1 aa bd 89 c7 a9 3d db 63 0f bd ea 1b b0 bc
       -0.083376944 0.082900114 -0.03500734 -0.021497685
000040 58 01 34 bd 0f 00 a7 3c f9 cd 79 bd 5c 82 44 bb
       -0.043946594 0.02038577 -0.060987446 -0.0029984927
000050 c5 11 03 3d b5 e5 8c bd 1f fb af bd 87 9c 3a 3c
       0.03199937 -0.06879751 -0.085928194 0.011389858
000060 ab dd df 3c 02 00 67 bd 70 21 45 bd b1 85 29 bb
       0.02732738 -0.05639649 -0.04812759 -0.002586704
000070 ce 6e 5a 3d 4e ce 5d 3d d0 f2 ac 3c b0 c2 55 3d
       0.053328328 0.054151826 0.021111876 0.05218762
000080 8c 09 a9 bd 83 8f 0d be 5c a9 e2 3c 1b 09 1a bd
       -0.08253774 -0.13824277 0.027668647 -0.03760634
000090 02 37 1b 3d 81 08 a2 3d f5 04 9f 3c 2e b7 16 bd
       0.037894256 0.07911778 0.019411543 -0.036795788
0000a0 a9 f2 85 bd 33 da ae bd 84 99 9c 3c d0 b4 21 bc
       -0.065404244 -0.08537712 0.01911617 -0.009869769
0000b0 ca 7c 6f bd e5 29 1c bd a8 48 e7 3c 3c 50 ea bd
       -0.058468617 -0.03812589 0.028232887 -0.11441085
0000c0 ce 5e 01 3d 80 33 65 bd 31 e3 93 bd dd a4 57 3d
       0.031584553 -0.055957317 -0.07221068 0.05264746
0000d0 82 bc 53 bd cb 56 d2 bd 04 f6 91 bd 13 db d6 bd
       -0.051693447 -0.10270461 -0.07127002 -0.10491004
0000e0 13 e1 87 3d d0 b8 89 bd 0e a2 16 3d 4d 21 32 bd
       0.066347264 -0.06724703 0.03677564 -0.04348879
0000f0 78 0a ab bd a5 1f ea ba 49 34 42 bd f3 ce 31 bd
       -0.08351606 -0.0017862214 -0.047413144 -0.043410253

fc3.weight f4 [1, 64]
000000 e0 a0 65 3c 38 79 b4 bc 58 23 32 3d 40 85 e5 3c
       0.014015406 -0.022030458 0.043490738 0.02801764
000010 0e 4a d5 3a e7 ab d0 3c 60 a3 cf bd 0c af 73 3c
       0.001627268 0.025472594 -0.10138583 0.014873277
000020 78 57 e8 3d 00 cc f9 3b d0 83 79 bd a9 6a 84 bc
       0.11344808 0.0076231956 -0.06091672 -0.01616414
000030 af 95 04 bb 36 8c ad bd 58 6a f4 bd f1 16 ca bd
       -0.002023082 -0.08474009 -0.11934346 -0.09867657
000040 af 4a 28 bc df c5 72 bb 82 de 00 bd 47 82 0b 3b
       -0.010271712 -0.003704421 -0.0314622 0.0021287368
000050 3d c4 70 bc 48 8f d7 bd 0f 1e 94 3c 6e 2b 45 bc
       -0.014695224 -0.105253756 0.01808074 -0.01203428
000060 c9 7c b7 bc 80 e8 ad 3c 76 e6 7d bd c7 12 f4 b9
       -0.02239837 0.021229029 -0.061987363 -0.00046553297
000070 ac 82 62 bc 68 9b 96 3d e2 65 99 bd 5e 83 84 3c
       -0.0138251 0.0735386 -0.07490136 0.016175922
000080 e4 f4 9e bd 41 a0 ba 3c e6 a7 9c 3c ed db c5 bc
       -0.07761553 0.022781493 0.019123029 -0.02415272
000090 3c 0d 64 3a 3b f2 a6 3d a3 dc ba bd 00 5d 61 ba
       0.0008699482 0.081516705 -0.09124114 -0.0008596927
0000a0 d4 67 fd bc 38 19 98 bc 7e f2 c5 ba 90 35 21 bc
       -0.030933298 -0.018566713 -0.0015102176 -0.00983943
0000b0 b4 ea 74 bd b2 ba 6d 3a 36 a8 e1 bc 44 4d d1 bb
       -0.059794143 0.0009068652 -0.02754603 -0.0063873846
0000c0 f8 18 66 bd 14 ba a1 3d d8 91 b8 bd be 23 81 3b
       -0.056176156 0.0789682 -0.090121925 0.0039410284
0000d0 a7 b4 7e bd c5 9f ac 3c 69 04 14 bd a0 49 ca bc
       -0.062184002 0.021072278 -0.03613702 -0.02469331
0000e0 f4 a2 28 bd 89 c8 4e bc 1b 6e 83 b7 df 64 03 3d
       -0.04117103 -0.0126210535 -1.5667689e-05 0.03207862
0000f0 62 e8 87 3d 0a 86 22 bb 37 80 3f bb 6e 1d d8 3d
       0.066361204 -0.0024799132 -0.002922071 0.10552488
