Models/wAIves2v2.0.pth (torch, 39452 bytes, 5 tensors)

fc1.weight f4 [128, 6]
00000000: 837e f5be f6a1 99be 2dee 13bf 5e77 9e3d
00000010: bd09 45c0 0164 afbe a59a 0ebf a058 803d
00000020: b35b 7d3e 0915 09bd 1b80 20bf 8bf5 d8be
00000030: b5fa 20bb e4aa 70be 503b 1e3d 1444 00bd
00000040: 0ce5 0a40 f840 aabe 1008 9b3d eab9 a03e
00000050: d076 36be 1b7f b4be e0f3 bf3e 6051 2b3e
00000060: 3331 73bf 8677 263e 2253 f73d 2928 863d
00000070: 53f2 34c0 1e7f 8abe f097 35bd 94b2 6fbe
00000080: 1e79 933e c2f5 5ebe dc13 1e3e a3b0 cebe
00000090: 3bb6 a3bf 8e7e a63e e8f4 84bd 5492 8e3d
000000a0: 3a5c 48c0 1b63 05be 1e61 9abe 7eed 823e
000000b0: 606d ce3c b674 a3be ea3b 48be 00f9 763c
000000c0: 682e 78bd b4bd 563e c8ce cd3e 34fb 6cbe
000000d0: f87e 4c3d 649b 5c3e 92f0 9cbe 7804 413e
000000e0: 0d4a c2be 7546 25be da0c 8bbe a8fc 28bd
000000f0: e494 c23e 8cf4 263e 467d b33e 70bb c2be
00000100: b176 a9be 701c d53c 5943 03bf 9f17 be3e
00000110: 06a2 f5be 2f18 0f3e 7c14 28c0 5e65 cdbe
00000120: 0f5c 19be 799a 0fbf 2899 b93d 90c7 403c
00000130: 5786 0bc0 72f5 08bd 014a ef3e 5ee0 bfbe
00000140: 3f55 84bc 2443 a33d 2619 3540 a09e ac3d
00000150: 8f4f 56bf e49d 103f 0ce3 673e f94c b63d
00000160: d0bd 52c0 f518 68be f8f0 573d 5661 cd3e
00000170: 28ce a9be df42 94be 90b7 c33d 4051 0e3c
00000180: d986 87be 8495 e6bd 8cb9 073e 4c86 98be
00000190: c4c7 693e a23c bb3e 56ea 323f 6cd8 d8be
000001a0: 83fe 913e b1da b33d 25db 01c0 a193 39bf
000001b0: 4fc5 c8be 983c 50bd 1ee5 bfbe 09f6 a1be
000001c0: c82e 9f3e 9859 93be dbe3 95bf 8c11 183e
000001d0: d686 6e3e a3a5 863c a772 1fc0 79fb bdbc
000001e0: 3626 203f db0f e3be 2d15 dfbe eddc c83d
000001f0: b8a4 2740 5ef1 d03d 4f89 f1be aa69 6f3e
00000200: a7bd 203f bf68 52bc 619a eebf 9a76 3dbe
00000210: 8495 4cbf 1f94 9bbd be3a 193f ef11 9b3d
00000220: 9668 0a3f 559c bebf 50b3 6a3e 7eb6 c23e
00000230: fa62 81be b6b4 cabe 2c63 723e fc29 793e
00000240: b04f 5dbf 82bd f3be 6570 5ebe 7a4a 6a3c
00000250: 3ef2 00c0 4fcd 6c3d 2b56 55bf 3095 823e
00000260: 022a 24bf b7c4 7f3d c52a 12c0 4356 1abe
00000270: 576f 55be c8ea 103e 840f adbd 3883 9dbd
00000280: 0443 0a3e 1015 ef3d 7462 ba3e 7ac9 803e
00000290: 53b4 9ebe 4551 c1be 9e61 9c3e 38ff c5bd
000002a0: 583f c43d 68dd 1c3e 8396 b1be 922b bfbe
000002b0: 9ce0 253e d005 c83d 5021 1bbe 48b0 b23d
000002c0: dcbd 0dbe ee57 28be 1a51 883e f821 9abe
000002d0: 7fce dfbd cb01 a83e 1507 acbe 5344 aabd
000002e0: e585 90be 49d2 503e 7612 46bf 88d6 9d3e
000002f0: 7156 833c 1c7d f2bb 3c4b 1ac0 9df5 413c
00000300: 10f5 10bd 9cbd a8be b8c2 263e 36da 3fbe
00000310: d66c a13e 9ea8 17be a94b a7bf 571d da3e
00000320: bde4 1d3c d804 863d 83ce 32c0 e53d 1abe
00000330: d6e5 ac3e ee81 14be c4a2 563e 80bd 0ebd
00000340: e092 bb3c bff7 47be 7338 91be a002 19be
00000350: acb1 84be 12ad 83be dca6 aa3d fc1d 853e
00000360: f898 7dbd faeb ba3e fcb5 4f3e 2126 96be
00000370: 7a22 91be 2e2a c8be 1055 c4bc ecb0 ac3d
00000380: c38e b6be 9ec9 a9be 4852 393d 4de0 39be
00000390: 947d 013e 3504 9ebe 5a59 c93e e43b eabd
000003a0: 1445 19be 9a03 b7be c0ff 40bf 7b37 f9be
000003b0: 9129 1dbe 3c90 96bc 4194 38c0 7eb9 0a3d
000003c0: a2b5 3a3f fefd 2dbf 9b45 03be 3dcc 043e
000003d0: b850 2340 2834 433d 2c1b febd 28d9 4a3e
000003e0: dd6c 8dbe f4a2 b1be 0f53 c2be 98d7 bbbe
000003f0: 0c4f 08be eb4a 23bf efcb 1cbf 4a4c 343c
-0.47948083 -0.3000638 -0.577853 0.07737611 -3.0787194 -0.34255984 -0.5570472 0.06266904
0.24742012 -0.033467326 -0.62695473 -0.42374834 -0.0024563496 -0.2350269 0.038630784 -0.031314924
2.17023 -0.33252692 0.07569897 0.3139184 -0.17818761 -0.35253224 0.3749075 0.16730261
-0.9499695 0.16256532 0.12076403 0.06550629 -2.8272903 -0.27050108 -0.044334352 -0.23407966
0.28803343 -0.21773437 0.15437263 -0.40369138 -1.2789987 0.3251843 -0.06492025 0.069615036
-3.130629 -0.13026087 -0.3015222 0.25571817 0.025198638 -0.3192498 -0.19554105 0.015074015
-0.06059113 0.20970803 0.40196824 -0.23142701 0.049925774 0.21543652 -0.3065229 0.18849361
-0.3794712 -0.16140158 -0.27158242 -0.041256577 0.3800422 0.16304225 0.35056514 -0.38033628
-0.33098367 0.026014537 -0.5127464 0.37127396 -0.47975177 0.13974069 -2.6262503 -0.401164
-0.14976524 -0.5609508 0.09062415 0.011766329 -2.1800745 -0.0334372 0.46736148 -0.37475866
-0.01615393 0.079717904 2.82966 0.08428693 -0.83715147 0.5649092 0.22645205 0.089014
-3.2928352 -0.2266577 0.05272004 0.40113324 -0.33165097 -0.2895727 0.09556496 0.008686364
-0.26470068 -0.112589866 0.13254374 -0.2978996 0.22830111 0.36569697 0.6988882 -0.42352617
0.2851449 0.087819465 -2.0290005 -0.7249089 -0.39213035 -0.050839037 -0.3747949 -0.31633022
0.3109038 -0.28779292 -1.1710161 0.14850444 0.23293623 0.016436404 -2.4913728 -0.0231912
0.62558305 -0.44348034 -0.43570843 0.09807763 2.6194286 0.10202287 -0.4717507 0.23380151
0.62789387 -0.012842356 -1.8640863 -0.18502274 -0.7991564 -0.07596611 0.5985526 0.0757178
0.54065835 -1.4891459 0.22919965 0.38029855 -0.25270826 -0.39590997 0.23670644 0.24332422
-0.8644972 -0.4760552 -0.21722563 0.014299983 -2.0147853 0.057812985 -0.83334607 0.25504446
-0.641266 0.06244346 -2.2838604 -0.15071969 -0.20843254 0.14152062 -0.08450225 -0.076910436
0.13502127 0.11673939 0.3640324 0.25153714 -0.3099695 -0.37757316 0.30543226 -0.0966782
0.09582394 0.15318835 -0.34685144 -0.3733793 0.16198963 0.09766734 -0.15149426 0.08725029
-0.13841957 -0.16439793 0.26624376 -0.3010404 -0.10928058 0.32813868 -0.33599153 -0.08313813
-0.28227153 0.20392717 -0.7737192 0.30827737 0.01603243 -0.007400168 -2.410842 0.011838344
-0.03538996 -0.3295716 0.16285217 -0.18735585 0.31528348 -0.14810416 -1.3069965 0.4260051
0.009637055 0.065438926 -2.7938545 -0.15062673 0.337691 -0.14502689 0.20960528 -0.03484869
0.022897184 -0.19528101 -0.2836338 -0.14942408 -0.25916803 -0.2571798 0.08332607 0.2599944
-0.06191346 0.3650816 0.20284265 -0.29325965 -0.28346616 -0.3909468 -0.023966342 0.08432183
-0.35655794 -0.33161634 0.045244485 -0.1815197 0.1264556 -0.30862585 0.39325982 -0.114372045
-0.14967757 -0.35744935 -0.75390244 -0.4867514 -0.15347888 -0.018379323 -2.8840487 0.033868305
0.729334 -0.67965686 -0.12819521 0.12968536 2.5518017 0.047657162 -0.124075264 0.19809401
-0.2762212 -0.34694636 -0.37953994 -0.36687922 -0.13311404 -0.6378619 -0.6124868 0.011004517

fc1.bias f4 [128]
00000000: ca4b 35bf c7e3 aebe d13a 473e d253 91be
00000010: 553f 4abe 850c 75be fb64 28bf 0071 f83c
00000020: 54a6 963e 3244 a93e 1875 4d3d b98b 0dbf
00000030: 3b9e bdbd b099 9dbe f4f5 e3be 1448 583e
00000040: ccc4 ad3d ebe5 2abe 3692 c53e c526 c6be
00000050: 5c98 c03d 0051 403e 0458 83be 38cd d73d
00000060: 4a1b 51bf 34ca fa3b 3c62 acbd ea42 64be
00000070: b824 37bd 0cc8 8a3e 9264 cabe b909 1dbe
00000080: 5066 a83e 2c94 c5be 30bb 633d 54ac 743e
00000090: d803 503d 2ee3 2cbe fd19 a4be f3c0 cebe
000000a0: 1de5 db3d 0038 493e f8f5 e73d f7bd fabe
000000b0: 8734 e6be e051 b03e 0072 20bb 485a 323e
000000c0: 0414 533e 6019 9d3c 7a5f 5abe d817 c93d
000000d0: 90ff 943d b870 63be 38a9 94be 0d54 51bf
000000e0: c825 373e 00d6 f2bc 29dd c0be 7487 8bbe
000000f0: 4be9 11bf 2e99 53be 54f8 673d 8c9d 4cbe
00000100: 2160 563e efa8 1c3e 9881 b93e ec86 bebe
00000110: b4de cabd 52ae 2abe 7fab 39bf 440b 743e
00000120: e840 41bd d264 5cbe 6287 8e3e 07f2 39be
00000130: a4e1 b63e f9c4 87bc 157b c8be 3154 d8bd
00000140: a47f babc b4e6 0d3e 282c 76be c1a6 c63d
00000150: 80a6 eabd 1730 79be ac00 32bd 323e 373d
00000160: 2c0a b73e 6f94 223d dca8 423e 7386 1abe
00000170: a4c1 663e c144 843e dc08 a23d f190 8ebe
00000180: 1000 a0be 3640 b3be 0db7 9cbe 9cf3 3bbf
00000190: ac9e c63e ebd6 f9be 32b2 88be b019 53be
000001a0: 100f 4d3e 1e38 7e3e f4bd ad3d dc0b 89be
000001b0: 5cf4 29be baf1 a5be 9610 803e 5085 f13c
000001c0: 853e f4be 593c 6c3e 0fdc 1bbe cfd7 0bbf
000001d0: 1cb8 c4bd da1f c73e ecd0 08be 2f86 b7be
000001e0: 4e8c bfbe b3fc e23d 717d ba3d 99f1 17bd
000001f0: 8e91 fcbe 4080 dabd 6e8e d03e c6c9 d53c
-0.7081877 -0.34158155 0.1945603 -0.28384262 -0.19750722 -0.23930557 -0.65779084 0.03032732
0.29423773 0.3305984 0.050160497 -0.55291325 -0.09258696 -0.30781317 -0.44523585 0.21121246
0.08484802 -0.16689269 0.38588113 -0.38701454 0.0940406 0.18780899 -0.25653088 0.10537189
-0.81682265 0.007653499 -0.08417174 -0.2229115 -0.044712752 0.2710575 -0.39529854 -0.1533574
0.32890558 -0.3858961 0.055598438 0.23893863 0.050784916 -0.16883537 -0.32051077 -0.40381584
0.10737059 0.19650269 0.11326212 -0.48973057 -0.4496195 0.34437466 -0.0024482012 0.17417252
0.20613104 0.019177139 -0.21325484 0.09819001 0.07275307 -0.22210968 -0.29035354 -0.81768876
0.17885506 -0.029643059 -0.37668732 -0.2725178 -0.569966 -0.20663902 0.05663331 -0.19981974
0.20935108 0.15298818 0.36231685 -0.37212312 -0.099057585 -0.1666806 -0.7252731 0.23832422
-0.04718104 -0.21522835 0.27837664 -0.18158732 0.35719025 -0.016573416 -0.39156404 -0.10562933
-0.022765942 0.13857538 -0.24040282 0.096997745 -0.114575386 -0.24334751 -0.043457672 0.04473705
0.35749948 0.03969234 0.19009727 -0.15090351 0.22534806 0.25833705 0.07911846 -0.27844957
-0.31250048 -0.35009927 -0.30608407 -0.73418593 0.38792932 -0.48796782 -0.26698452 -0.20615268
0.20025277 0.24826095 0.08483496 -0.2676686 -0.16597122 -0.32410985 0.25012654 0.029482514
-0.4770395 0.23069896 -0.15220664 -0.5462617 -0.096054286 0.38891488 -0.13360947 -0.3584456
-0.3741173 0.11083355 0.09105957 -0.03709564 -0.493298 -0.10668993 0.40733665 0.02609719

fc2.weight f4 [64, 128]
00000000: f3c5 573c 4941 1dbd 95d6 81bd a8df 4c3c
00000010: 945e 5f3d 40c2 5bbb a19d a2bc bf4a 8d3d
00000020: c368 973d a455 883c 6b98 3fbd dbfc 7abc
00000030: c19e 9f3d b418 a0bd 4933 edbc d872 86bc
00000040: 1cfd 85bd 53a3 b2bd 3af7 603d 129b e3bd
00000050: 6685 97bb 57e4 1abc e90d 1c3d 1e21 1bbd
00000060: b0ca aa3d 898a eb3c 3e79 01bd 64fe ffbc
00000070: 1622 773d 9cf6 62bd 554e b13d 944a 883d
00000080: 7466 ee3c 095b a2bd 7829 50bc 476e b13d
00000090: 3c2e e13c 969c 1c3d dcfb e4bc d022 3fbc
000000a0: a30e 623d 7298 91bd f5fb e8bc 031e 76bb
000000b0: d3d9 913d 22e7 b8bd 4026 153d 9438 d83c
000000c0: a0a1 1b3b 933a 53bd 9fdd 983d 408a acba
000000d0: f865 4abc fbd6 683d 1ff3 23bd 881f 8dbd
000000e0: 5edb 4fbc 6b8d 7fbd aa5b 343d ecf3 063d
000000f0: 08c1 853c 4b68 a43d 367d f3bc 3256 fdbd
00000100: 07cb a5bd cb00 d1bd 0451 c4bc 7fed 0abc
00000110: 389c d53c a0b6 9c3c 007a 3fbd ddda 2cbd
00000120: 2443 31bd e125 41bc 3c38 babc 1270 973d
00000130: 084d 653d d9ac c7bc 6069 c53b b6aa bdbd
00000140: 252b a6bb 0438 cabc fb3e b6bd a6ac 8ebd
00000150: 00a6 1ebc 307b af3b 85d6 6fbd 7661 2b3c
00000160: dbd5 1cbd 5f5e 2d3c afbc 03bd 0e2b a4bd
00000170: 03a8 a83d 75c6 aa3c a07b 803c a21d 373d
00000180: f006 3b3c b6fe 9abd 3cf0 59bd b697 b3bd
00000190: acb9 3f3d 9c94 b33c 9706 a3bd 7c7d 8abd
000001a0: df7f 25bd 16a7 e33c 5ba4 943d 809b 69bc
000001b0: 4d09 863c 4fbc 3a3c 76eb 6e3d 9a3f 79bd
000001c0: 0868 443d 96c0 d9bd c700 d8bd 7d52 a1bd
000001d0: 00ac c83a 3cc2 b0bc 44c3 73bd 5f9e 863d
000001e0: 58f6 533c 4ab0 ddbd 90b6 ce3c cce9 b83c
000001f0: 73d7 963a 4ad7 6ebd d21e 62bd aa2a 6c3d
00000200: 9a14 b73c a2e3 103d 632e 6fbd 36db 523d
00000210: dd2b c5bd 4d97 2cbd 048c 00be f130 59bd
00000220: 7062 fa3c 80e2 8e3c f5d3 54bd 3343 153d
00000230: e05f 81bd 75b0 1abd f54b a4bc 37b2 b03d
00000240: 881d 9fbc 732d 253d 7cd9 a73c d112 bfbd
00000250: 1a6d 203c 7342 913c 3490 0cbd f024 633c
00000260: 6623 243b 9c64 363c 529a 7c3d f8e9 91bc
00000270: 627e 61bd b988 af3d 195e 54bd 2f36 98bd
00000280: f7de 873d 99c2 50bd e033 25bb c0f2 45bb
00000290: 3cb6 df3c a9f1 ae3d e8ff a6bd 6d12 cabd
000002a0: c030 c6bd e272 74bd 255c fabc d9fd 59ba
000002b0: de5f 8fbc f2cd 9b3a 8f13 9bbd 80c8 c7bc
000002c0: 9293 573d 1e98 683d e140 8bbd a1d6 873d
000002d0: c998 92bd 8617 58bd e1eb 61bd d942 ad3c
000002e0: 8c37 9d3b 9806 c93c f543 9fbd e8d6 f53c
000002f0: 2b87 ecbc aa05 483d c0ff a5bd 2f3c a038
00000300: 1155 173d b5a8 b13a 2976 a43d 0265 8fbd
00000310: 65d9 89bd ed8c 893d f587 b7b6 1e13 5b3d
00000320: 6905 9e3d 1302 ea3c efde 9d3d a992 eebc
00000330: 13e0 f53b b627 633c a462 ca3c 0b78 9a3c
00000340: 6fa4 2e3c 705b fabb 447a 17bd 4308 70bd
00000350: a6b5 363d 70fc 083d 651b b23c 9c57 8ebd
00000360: 3216 573d 70e5 b0bd 7369 aabd 2b9a 31bd
00000370: d8cd 1abc 5a16 8bbd 781a 8abd 3b26 d8bb
00000380: 50c8 cd3b d82b 75bd 83ce 82bd 9a05 cdbd
00000390: b461 583d 324e 6bbc 5444 f3bc 293a f23c
000003a0: 88e0 7dbc 25d2 e8ba 3955 a0bd 5180 9b3d
000003b0: 33fb 66bd 5637 90bd 39ec 23bd a085 10bc
000003c0: 2a33 d9bd 79f9 64bd bb6b eebd c568 bbbc
000003d0: 3267 6dbd 48e7 0c3d 04aa 9ebd 4c1f ce3c
000003e0: 6301 8abd f821 e6bd e12c 28bd 6c0c 643d
000003f0: f760 3cbd 26d0 773d b15a 873d c6c8 a0bc
0.013169753 -0.03839234 -0.063397564 0.012504496 0.054533556 -0.003353253 -0.019850554 0.06899022
0.073930286 0.0166424 -0.046776216 -0.0153190745 0.07793952 -0.07817212 -0.028955119 -0.016412184
-0.065424174 -0.08722558 0.054923274 -0.11113562 -0.0046240566 -0.0094538545 0.038099203 -0.03787338
0.08339441 0.028752582 -0.031609766 -0.031249233 0.06033524 -0.055410966 0.08657519 0.0665485
0.029101588 -0.0792752 -0.012705199 0.08663612 0.027487867 0.03823527 -0.027952127 -0.011666015
0.05518974 -0.07109155 -0.028440455 -0.003755451 0.07121625 -0.0902846 0.03641343 0.026394166
0.002374746 -0.051569533 0.07464146 -0.001316376 -0.012353413 0.056845646 -0.04002678 -0.0689078
-0.012686579 -0.062390726 0.04403273 0.032947466 0.016327396 0.08027705 -0.029722791 -0.12369956
-0.08095365 -0.10205229 -0.023964413 -0.008479475 0.026075467 0.019130051 -0.046747208 -0.04220091
-0.04327692 -0.011788816 -0.022731893 0.073944226 0.055981666 -0.024374412 0.0060245246 -0.09261076
-0.005071061 -0.024684913 -0.08898731 -0.06966524 -0.009683132 0.0053552613 -0.05855419 0.010460248
-0.038289886 0.010581582 -0.032162365 -0.080160245 0.08235171 0.020846585 0.015683949 0.044705994
0.011415228 -0.075681135 -0.05320762 -0.08769171 0.04680793 0.021921448 -0.07960241 -0.067622155
-0.04040515 0.027789634 0.07257911 -0.0142582655 0.016361857 0.011397435 0.05833002 -0.06085167
0.047950774 -0.10632436 -0.10547023 -0.078770615 0.0015310049 -0.021576993 -0.05951239 0.06573176
0.012937151 -0.1082464 0.025233537 0.02257242 0.0011508301 -0.058310784 -0.055205174 0.057657875
0.02234869 0.035373338 -0.058393847 0.051478587 -0.09627507 -0.04213648 -0.12553412 -0.05302519
0.030564517 0.017441988 -0.05195995 0.03644104 -0.06317115 -0.03776594 -0.02005575 0.08627742
-0.019423261 0.040326547 0.020489447 -0.09329761 0.009791637 0.01773188 -0.03431721 0.013863787
0.0025045513 0.011132386 0.06167061 -0.01781176 -0.05505217 0.08571 -0.05184755 -0.0743221
0.06634324 -0.050966833 -0.0025207922 -0.0030204505 0.027308576 0.08542187 -0.08154279 -0.09866796
-0.09677267 -0.059679873 -0.030561516 -0.00083157193 -0.017501768 0.0011886938 -0.0757209 -0.024387598
0.05263097 0.056785695 -0.06799484 0.06632734 -0.07158048 -0.05275681 -0.055156592 0.02115004
0.0047978815 0.024539277 -0.07776634 0.030009702 -0.028873047 0.048833527 -0.08105421 7.6406046e-05
0.03694636 0.0013554307 0.0803035 -0.070016876 -0.06730918 0.067163326 -5.4696525e-06 0.05348503
0.07715876 0.028565442 0.07708537 -0.029122667 0.0075035184 0.013864448 0.024705239 0.01885607
0.010659321 -0.0076402947 -0.036981836 -0.05860163 0.044606827 0.03344387 0.021741578 -0.06950304
0.0525114 -0.08637512 -0.08320894 -0.043359917 -0.009448491 -0.067913726 -0.0674333 -0.0065963543
0.0062799826 -0.059856266 -0.06387045 -0.10010834 0.052827552 -0.014361905 -0.029695667 0.029568749
-0.015495427 -0.0017762823 -0.07828755 0.07592834 -0.056391906 -0.070418045 -0.0400202 -0.008820921
-0.10605462 -0.05590198 -0.11641642 -0.022877106 -0.057959743 0.034400254 -0.07747272 0.025161408
-0.06738546 -0.11236948 -0.041058425 0.05567591 -0.04599091 0.06050124 0.06609095 -0.019626986

fc2.bias f4 [64]
00000000: e0e7 3a3d 8386 cebc 7a19 04bd 236b 4c3d
00000010: 0437 90bd 5332 bfbc 9254 bf3c e336 8abd
00000020: fed7 3dbd b42c d5bb a7fd 2dbc 31d5 0ebd
00000030: 491b dfbd 4d84 d5bd b0eb 803b 3c56 013d
00000040: d342 2ebd 7a26 cfbd 3759 e2bd b0b5 26ba
00000050: 1544 d8bc 1733 b83c 5253 d8ba 534b e73c
00000060: b08a c3bd 828b 14bd 7876 9fbd 59af 46bd
00000070: 29b4 ac3d 14d9 573d 2c91 86bd 9161 ddbc
00000080: d088 4cbc 18bc 523c c6ee 0bbc b13c a5bd
00000090: a35f 383d 72c9 9dbd d51c a9bd edec 37bd
000000a0: 3c31 9a3c 5d8a f7ba b18a 11bd e3b2 243d
000000b0: 2aaf aabc cc9a 4f3d c4e6 3cbd c775 963c
000000c0: 7262 cdbc 4ad0 443c 0ef3 e5bc 9c28 473d
000000d0: 1d19 58bd 86c6 1fbc 805a 1c3c e6ff 81bd
000000e0: 12b4 4bbd 3fff 7cb8 9c7e 85bc 24e9 fb3c
000000f0: 451f 67bd 3c20 2e3e c0e8 ddbd 18ea 6c3d
0.04563129 -0.025210625 -0.03225086 0.04990686 -0.070417434 -0.023339426 0.023355756 -0.0674875
-0.046348564 -0.006505573 -0.010619557 -0.034871284 -0.10893876 -0.10425625 0.003934346 0.03157638
-0.042544197 -0.10114761 -0.11052173 -0.0006359471 -0.026399652 0.022485299 -0.0016504324 0.02823416
-0.09547937 -0.036265858 -0.07786268 -0.04850707 0.084328 0.052697256 -0.06570658 -0.027024062
-0.0124837905 0.012862228 -0.008540815 -0.080682166 0.04501308 -0.07704438 -0.082574524 -0.044903684
0.018822305 -0.001888584 -0.035532657 0.040209662 -0.020835478 0.050684735 -0.046118513 0.018366707
-0.025071356 0.012012551 -0.02807 0.048622712 -0.052758325 -0.0097519215 0.009543061 -0.06347637
-0.049732275 -6.03192e-05 -0.016295724 0.030750819 -0.056426305 0.17004484 -0.10835409 0.057840437

fc3.weight f4 [1, 64]
00000000: 0c1a 58bd 0bbd 42bc 767b bd3c 573d bd3c
00000010: bb28 b0bd 96b1 82bc 5750 26bc a08b e83d
00000020: 0548 f5bc 7d6c dd3c 96f3 c3bd 70b1 b0bd
00000030: 6a71 21bc 9660 a03c 94b9 513d d2cc d93b
00000040: 6b93 563d 3c69 843c 3f38 61bc d879 573a
00000050: 24ca 8ebb f2cd 623d d2c6 be3d 9501 d5bd
00000060: 402c e2bc f696 de3d aac4 cd3d 43d6 153d
00000070: 8c1f 4ebd 9d61 e8bc 4e8f 953d 0604 fb3c
00000080: f0cf 113d a2e3 81bd dd48 633d 206c a33d
00000090: 4f18 dabc 5f52 c1bc 8945 8f3c 9319 ad3d
000000a0: 3cf7 fdbb afbc acbd f770 f33a 3d67 10bd
000000b0: 8e7c dc3c f37e 57bc f0d3 f1bb 921a 6b3c
000000c0: 5669 843b 7452 ca3c 8c09 f43d b2f7 bc3a
000000d0: d468 4ebd 34c5 08bb dc1b ddbd 1ec1 aabc
000000e0: 03eb 213c 2593 0fbd a459 2b3d b9c3 5bbc
000000f0: 2002 a03c f183 863c ac6a 103c 55e9 97bc
-0.052759215 -0.011885892 0.02313016 0.023100538 -0.08601519 -0.01595382 -0.01015099 0.11354756
-0.029941568 0.02702927 -0.09567945 -0.086275935 -0.0098537 0.019577306 0.05120237 0.006646731
0.052386682 0.01616346 -0.01374632 0.0008219755 -0.004357593 0.055372186 0.09315266 -0.104006924
-0.02760899 0.10868637 0.10047276 0.03658129 -0.050323054 -0.028366858 0.07302724 0.030641567
0.035598695 -0.06342246 0.05548941 0.079796076 -0.02662292 -0.023598848 0.017489212 0.084521435
-0.00775042 -0.08434426 0.0018573095 -0.035254706 0.026914861 -0.013152826 -0.0073800012 0.014349597
0.0040408773 0.02469752 0.119158834 0.0014417081 -0.05039294 -0.0020869495 -0.107963294 -0.020844039
0.009882691 -0.035052437 0.041833535 -0.013413363 0.019532263 0.016420336 0.008814495 -0.018543879
